# Parameters
nc: 45  # number of classes
depth_multiple: 0.33  # model depth multiple
width_multiple: 0.50  # layer channel multiple
anchors: 1  # number of anchors
loss: ComputeXLoss

# YOLOv5 backbone
backbone:
  # [from, number, module, args]
  # [from, number, module, args]
  [ [ -1, 1, Conv, [ 64, 6, 2, 2 ] ],  # 0-P1/2
    [ -1, 1, Conv, [ 128, 3, 2 ] ],  # 1-P2/4
    [ -1, 3, C3, [ 128 ] ],
    [ -1, 1, Conv, [ 256, 3, 2 ] ],  # 3-P3/8
    [ -1, 6, C3, [ 256 ] ],
    [ -1, 1, Conv, [ 512, 3, 2 ] ],  # 5-P4/16
    [ -1, 9, C3, [ 512 ] ],
    [ -1, 1, Conv, [ 1024, 3, 2 ] ],  # 7-P5/32
#    [ -1, 3, C3, [ 1024 ] ],
    [ -1, 1, Dense, [ 1024, 1, 0.2 ] ],
    [ -1, 1, SPPF, [ 1024, 5 ] ],  # 9
  ]

# YOLOv5 head
head:
  [ [ -1, 1, Conv, [ 512, 1, 1 ] ],
    [ -1, 1, nn.Upsample, [ None, 2, 'nearest' ] ],
    [ [ -1, 6 ], 1, Concat, [ 1 ] ],  # cat backbone P4
    [ -1, 3, C3, [ 512, False ] ],  # 13

    [ -1, 1, Conv, [ 256, 1, 1 ] ],
    [ -1, 1, nn.Upsample, [ None, 2, 'nearest' ] ],
    [ [ -1, 4 ], 1, Concat, [ 1 ] ],  # cat backbone P3
    [ -1, 3, C3, [ 256, False ] ],  # 17 (P3/8-small)

    [ -1, 1, Conv, [ 128, 1, 1 ] ],
    [ -1, 1, nn.Upsample, [ None, 2, 'nearest' ] ],
    [ [ -1, 2 ], 1, Concat, [ 1 ] ],  # cat backbone P2
    [ -1, 1, SPP, [ 128, [ 5, 9, 13 ] ] ],
    [ -1, 3, C3, [ 128, False ] ],  #  (P2/4-xsmall)
    [ -1, 1, CBAM, [ 128 ] ],           # 23

    [ -1, 1, Conv, [ 128, 3, 2 ] ],
    [ [ -1, 18, 4 ], 1, Concat, [ 1 ] ],  # cat head P3
    [ -1, 1, SPP, [ 256, [ 5, 9, 13 ] ] ],
    [ -1, 3, C3, [ 256, False ] ],  # (P3/8-small)
    [ -1, 1, CBAM, [ 256 ] ],          # 28

    [ -1, 1, Conv, [ 256, 3, 2 ] ],
    [ [ -1, 14, 6 ], 1, Concat, [ 1 ] ],  # cat head P4
    [ -1, 1, SPP, [ 512, [ 3, 7, 11 ] ] ],
    [ -1, 3, C3, [ 512, False ] ],  #  (P4/16-medium)
    [ -1, 1, CBAM, [ 512 ] ],       # 33

    [ -1, 1, Conv, [ 512, 3, 2 ] ],
    [ [ -1, 10 ], 1, Concat, [ 1 ] ],  # cat head P5
    [ -1, 1, SPP, [ 1024, [ 3, 5, 7 ] ] ],
    [ -1, 3, C3, [ 1024, False ] ],  #  (P5/32-large)
    [ -1, 1, CBAM, [ 1024 ] ],        # 38

# yolox head
   [23, 1, Conv, [256, 1, 1]],  # 24 lateral0 (P3/8-small)
   [28, 1, Conv, [256, 1, 1]],  # 25 lateral1 (P4/16-xsamll)
   [33, 1, Conv, [256, 1, 1]],  # 25 lateral1 (P4/16-medium)
   [38, 1, Conv, [256, 1, 1]],  # 26 lateral2 (P5/32-large)    42

   [39, 2, Conv, [256, 3, 1]],  # 27 cls0 (P3/8-small)
   [39, 2, Conv, [256, 3, 1]],  # 28 reg0 (P3/8-small)

   [ 40, 2, Conv, [ 256, 3, 1 ] ],  # 27 cls0 (P3/8-small)
   [ 40, 2, Conv, [ 256, 3, 1 ] ],  # 28 reg0 (P3/8-small)

   [41, 2, Conv, [256, 3, 1]],  # 29 cls1 (P4/16-medium)
   [41, 2, Conv, [256, 3, 1]],  # 30 reg1 (P4/16-medium)

   [42, 2, Conv, [256, 3, 1]],  # 31 cls2 (P5/32-large)
   [42, 2, Conv, [256, 3, 1]],  # 32 reg2 (P5/32-large)

    [[43,44, 45, 46, 47, 48, 49,50], 1, DetectX, [nc, anchors]],  # Detect(P3, P4, P5)
  ]
